…
 = (3,3), activation=\"relu\"))\n    \nmodel.add(MaxPooling2D(pool_size=(2,2)))\n    \nmodel.add(Flatten())\nmodel.add(BatchNormalization())\nmodel.add(Dense(512,activation=\"relu\"))\n    \nmodel.add(Dense(10,activation=\"softmax\"))\n    \nmodel.summary()",
   "execution_count": null,
   "outputs": [
    {
     "name": "stdout",
     "text": "Model: \"sequential\"\n_________________________________________________________________\nLayer (type)                 Output Shape              Param #   \n=================================================================\nconv2d (Conv2D)              (None, 26, 26, 64)        640       \n_________________________________________________________________\nconv2d_1 (Conv2D)            (None, 24, 24, 64)        36928     \n_________________________________________________________________\nmax_pooling2d (MaxPooling2D) (None, 12, 12, 64)        0         \n_________________________________________________________________\nbatch_normalization (BatchNo (None, 12, 12, 64)        256       \n_________________________________________________________________\nconv2d_2 (Conv2D)            (None, 10, 10, 128)       73856     \n_________________________________________________________________\nconv2d_3 (Conv2D)            (None, 8, 8, 128)         147584    \n_________________________________________________________________\nmax_pooling2d_1 (MaxPooling2 (None, 4, 4, 128)         0         \n_________________________________________________________________\nbatch_normalization_1 (Batch (None, 4, 4, 128)         512       \n_________________________________________________________________\nconv2d_4 (Conv2D)            (None, 2, 2, 256)         295168    \n_________________________________________________________________\nmax_pooling2d_2 (MaxPooling2 (None, 1, 1, 256)         0         \n_________________________________________________________________\nflatten (Flatten)            (None, 256)               0         \n_________________________________________________________________\nbatch_normalization_2 (Batch (None, 256)               1024      \n_________________________________________________________________\ndense (Dense)                (None, 512)               131584    \n_________________________________________________________________\ndense_1 (Dense)              (None, 10)                5130      \n=================================================================\nTotal params: 692,682\nTrainable params: 691,786\nNon-trainable params: 896\n_________________________________________________________________\n",
     "output_type": "stream"
    }
   ]
  },
  {
   "cell_type": "code",
   "metadata": {
    "cell_id": "00011-76a9b946-a5d4-43a9-99e7-c0810523cf38",
    "deepnote_to_be_reexecuted": false,
…
